model_name_or_path: microsoft/deberta-v3-base
dataset: sst2
task: sst2
peft: kasa
num_epochs: 10
bs: 128
lora_r: 8
lora_alpha: 16
lora_dropout: 0.0
head_lr: 0.0005
module_lr: 0.0005
max_length: 512
weight_decay: 0.0
warmup_ratio: 0.06
seed: 0
beta: 0.0001
gemma: 0.001
DebertaV2ForSequenceClassification(
  (deberta): DebertaV2Model(
    (embeddings): DebertaV2Embeddings(
      (word_embeddings): Embedding(128100, 768, padding_idx=0)
      (LayerNorm): LayerNorm((768,), eps=1e-07, elementwise_affine=True)
      (dropout): StableDropout()
    )
    (encoder): DebertaV2Encoder(
      (layer): ModuleList(
        (0-11): 12 x DebertaV2Layer(
          (attention): DebertaV2Attention(
            (self): DisentangledSelfAttention(
              (query_proj): Linear(in_features=768, out_features=768, bias=True)
              (key_proj): Linear(in_features=768, out_features=768, bias=True)
              (value_proj): Linear(in_features=768, out_features=768, bias=True)
              (pos_dropout): StableDropout()
              (dropout): StableDropout()
            )
            (output): DebertaV2SelfOutput(
              (dense): Linear(in_features=768, out_features=768, bias=True)
              (LayerNorm): LayerNorm((768,), eps=1e-07, elementwise_affine=True)
              (dropout): StableDropout()
            )
          )
          (intermediate): DebertaV2Intermediate(
            (dense): Linear(in_features=768, out_features=3072, bias=True)
            (intermediate_act_fn): GELUActivation()
          )
          (output): DebertaV2Output(
            (dense): Linear(in_features=3072, out_features=768, bias=True)
            (LayerNorm): LayerNorm((768,), eps=1e-07, elementwise_affine=True)
            (dropout): StableDropout()
          )
        )
      )
      (rel_embeddings): Embedding(512, 768)
      (LayerNorm): LayerNorm((768,), eps=1e-07, elementwise_affine=True)
    )
  )
  (pooler): ContextPooler(
    (dense): Linear(in_features=768, out_features=768, bias=True)
    (dropout): StableDropout()
  )
  (classifier): Linear(in_features=768, out_features=2, bias=True)
  (dropout): StableDropout()
)
base_model.model.deberta.encoder.layer.0.attention.self.query_proj.lora_A.default.weight 6144
base_model.model.deberta.encoder.layer.0.attention.self.query_proj.lora_B.default.weight 6144
base_model.model.deberta.encoder.layer.0.attention.self.query_proj.lora_diag.default 8
base_model.model.deberta.encoder.layer.0.attention.self.value_proj.lora_A.default.weight 6144
…
